…
0, 19240, 19250, 19260, 19270, 19280, 19290, 19300, 19310, 19320, 19330, 19340, 19350, 19360, 19370, 19380, 19390, 19400, 19410, 19420, 19430, 19440, 19450, 19460, 19470, 19480, 19490, 19500, 19510, 19520, 19530, 19540, 19550, 19560, 19570, 19580, 19590, 19600, 19610, 19620, 19630, 19640, 19650, 19660, 19670, 19680, 19690, 19700, 19710, 19720, 19730, 19740, 19750, 19760, 19770, 19780, 19790, 19800, 19810, 19820, 19830, 19840, 19850, 19860, 19870, 19880, 19890, 19900, 19910, 19920, 19930, 19940, 19950, 19960, 19970, 19980, 19990, 20000], 'test_loss': [… 'nets': [[Net(
  (ff): Sequential(
    (0): Linear(in_features=1, out_features=5, bias=True)
    (1): Sigmoid()
    (2): Linear(in_features=5, out_features=1, bias=True)
  )
), Net(
  (ff): Sequential(
    (0): Linear(in_features=1, out_features=5, bias=True)
    (1): Sigmoid()
    (2): Linear(in_features=5, out_features=1, bias=True)
  )
), Net(
  (ff): Sequential(
    (0): Linear(in_features=1, out_features=5, bias=True)
    (1): Sigmoid()
    (2): Linear(in_features=5, out_features=1, bias=True)
  )
), Net(
  (ff): Sequential(
    (0): Linear(in_features=1, out_features=5, bias=True)
    (1): Sigmoid()
    (2): Linear(in_features=5, out_features=1, bias=True)
  )
)], [Net(
  (ff): Sequential(
    (0): Linear(in_features=1, out_features=5, bias=True)
    (1): Sigmoid()
    (2): Linear(in_features=5, out_features=1, bias=True)
  )
), Net(
  (ff): Sequential(
    (0): Linear(in_features=1, out_features=5, bias=True)
    (1): Sigmoid()
    (2): Linear(in_features=5, out_features=1, bias=True)
  )
), Net(
  (ff): Sequential(
    (0): Linear(in_features=1, out_features=5, bias=True)
    (1): Sigmoid()
    (2): Linear(in_features=5, out_features=1, bias=True)
  )
), Net(
  (ff): Sequential(
    (0): Linear(in_features=1, out_features=5, bias=True)
    (1): Sigmoid()
    (2): Linear(in_features=5, out_features=1, bias=True)
  )
)], [Net(
  (ff): Sequential(
    (0): Linear(in_features=1, out_features=5, bias=True)
    (1): Sigmoid()
    (2): Linear(in_features=5, out_features=1, bias=True)
  )
), Net(
  (ff): Sequential(
    (0): Linear(in_features=1, out_features=5, bias=True)
    (1): Sigmoid()
    (2): Linear(in_features=5, out_features=1, bias=True)
  )
), Net(
  (ff): Sequential(
    (0): Linear(in_features=1, out_features=5, bias=True)
    (1): Sigmoid()
    (2): Linear(in_features=5, out_features=1, bias=True)
  )
), Net(
  (ff): Sequential(
    (0): Linear(in_features=1, out_features=5, bias=True)
    (1): Sigmoid()
    (2): Linear(in_features=5, out_features=1, bias=True)
  )
)], [Net(
  (ff): Sequential(
    (0): Linear(in_features=1, out_features=5, bias=True)
    (1): Sigmoid()
    (2): Linear(in_features=5, out_features=1, bias=True)
  )
), Net(
  (ff): Sequential(
    (0): Linear(in_features=1, out_features=5, bias=True)
    (1): Sigmoid()
    (2): Linear(in_features=5, out_features=1, bias=True)
  )
), Net(
  (ff): Sequential(
    (0): Linear(in_features=1, out_features=5, bias=True)
    (1): Sigmoid()
    (2): Linear(in_features=5, out_features=1, bias=True)
  )
), Net(
  (ff): Sequential(
    (0): Linear(in_features=1, out_features=5, bias=True)
    (1): Sigmoid()
    (2): Linear(in_features=5, out_features=1, bias=True)
  )
)], [Net(
  (ff): Sequential(
    (0): Linear(in_features=1, out_features=5, bias=True)
    (1): Sigmoid()
    (2): Linear(in_features=5, out_features=1, bias=True)
  )
), Net(
  (ff): Sequential(
    (0): Linear(in_features=1, out_features=5, bias=True)
    (1): Sigmoid()
    (2): Linear(in_features=5, out_features=1, bias=True)
  )
), Net(
  (ff): Sequential(
    (0): Linear(in_features=1, out_features=5, bias=True)
    (1): Sigmoid()
    (2): Linear(in_features=5, out_features=1, bias=True)
  )
), Net(
  (ff): Sequential(
    (0): Linear(in_features=1, out_features=5, bias=True)
    (1): Sigmoid()
    (2): Linear(in_features=5, out_features=1, bias=True)
  )
)], [Net(
  (ff): Sequential(
    (0): Linear(in_features=1, out_features=5, bias=True)
    (1): Sigmoid()
    (2): Linear(in_features=5, out_features=1, bias=True)
  )
), Net(
  (ff): Sequential(
    (0): Linear(in_features=1, out_features=5, bias=True)
    (1): Sigmoid()
    (2): Linear(in_features=5, out_features=1, bias=True)
  )
), Net(
  (ff): Sequential(
    (0): Linear(in_features=1, out_features=5, bias=True)
    (1): Sigmoid()
    (2): Linear(in_features=5, out_features=1, bias=True)
  )
), Net(
  (ff): Sequential(
    (0): Linear(in_features=1, out_features=5, bias=True)
    (1): Sigmoid()
    (2): Linear(in_features=5, out_features=1, bias=True)
  )
)], [Net(
  (ff): Sequential(
    (0): Linear(in_features=1, out_features=5, bias=True)
    (1): Sigmoid()
    (2): Linear(in_features=5, out_features=1, bias=True)
  )
), Net(
  (ff): Sequential(
    (0): Linear(in_features=1, out_features=5, bias=True)
    (1): Sigmoid()
    (2): Linear(in_features=5, out_features=1, bias=True)
  )
), Net(
  (ff): Sequential(
    (0): Linear(in_features=1, out_features=5, bias=True)
    (1): Sigmoid()
    (2): Linear(in_features=5, out_features=1, bias=True)
  )
), Net(
  (ff): Sequential(
    (0): Linear(in_features=1, out_features=5, bias=True)
    (1): Sigmoid()
    (2): Linear(in_features=5, out_features=1, bias=True)
  )
)], [Net(
  (ff): Sequential(
    (0): Linear(in_features=1, out_features=5, bias=True)
    (1): Sigmoid()
    (2): Linear(in_features=5, out_features=1, bias=True)
  )
), Net(
  (ff): Sequential(
    (0): Linear(in_features=1, out_features=5, bias=True)
    (1): Sigmoid()
    (2): Linear(in_features=5, out_features=1, bias=True)
  )
), Net(
  (ff): Sequential(
    (0): Linear(in_features=1, out_features=5, bias=True)
    (1): Sigmoid()
    (2): Linear(in_features=5, out_features=1, bias=True)
  )
), Net(
  (ff): Sequential(
    (0): Linear(in_features=1, out_features=5, bias=True)
    (1): Sigmoid()
    (2): Linear(in_features=5, out_features=1, bias=True)
  )
)], [Net(
  (ff): Sequential(
    (0): Linear(in_features=1, out_features=5, bias=True)
    (1): Sigmoid()
    (2): Linear(in_features=5, out_features=1, bias=True)
  )
), Net(
  (ff): Sequential(
    (0): Linear(in_features=1, out_features=5, bias=True)
    (1): Sigmoid()
    (2): Linear(in_features=5, out_features=1, bias=True)
  )
), Net(
  (ff): Sequential(
    (0): Linear(in_features=1, out_features=5, bias=True)
    (1): Sigmoid()
    (2): Linear(in_features=5, out_features=1, bias=True)
  )
), Net(
  (ff): Sequential(
    (0): Linear(in_features=1, out_features=5, bias=True)
    (1): Sigmoid()
    (2): Linear(in_features=5, out_features=1, bias=True)
  )
)], [Net(
  (ff): Sequential(
    (0): Linear(in_features=1, out_features=5, bias=True)
    (1): Sigmoid()
    (2): Linear(in_features=5, out_features=1, bias=True)
  )
), Net(
  (ff): Sequential(
    (0): Linear(in_features=1, out_features=5, bias=True)
    (1): Sigmoid()
    (2): Linear(in_features=5, out_features=1, bias=True)
  )
), Net(
  (ff): Sequential(
    (0): Linear(in_features=1, out_features=5, bias=True)
    (1): Sigmoid()
    (2): Linear(in_features=5, out_features=1, bias=True)
  )
), Net(
  (ff): Sequential(
    (0): Linear(in_features=1, out_features=5, bias=True)
    (1): Sigmoid()
    (2): Linear(in_features=5, out_features=1, bias=True)
  )
)]]}"
10,"{'train_loss': [… 'opts': [[Adam (
Parameter Group 0
    amsgrad: False
    betas: (0.9, 0.999)
    eps: 1e-08
    lr: 0.001
    weight_decay: 0
), Adam (
Parameter Group 0
    amsgrad: False
    betas: (0.9, 0.999)
    eps: 1e-08
    lr: 0.001
    weight_decay: 0
), Adam (
Parameter Group 0
    amsgrad: False
    betas: (0.9, 0.999)
    eps: 1e-08
…
0, 19240, 19250, 19260, 19270, 19280, 19290, 19300, 19310, 19320, 19330, 19340, 19350, 19360, 19370, 19380, 19390, 19400, 19410, 19420, 19430, 19440, 19450, 19460, 19470, 19480, 19490, 19500, 19510, 19520, 19530, 19540, 19550, 19560, 19570, 19580, 19590, 19600, 19610, 19620, 19630, 19640, 19650, 19660, 19670, 19680, 19690, 19700, 19710, 19720, 19730, 19740, 19750, 19760, 19770, 19780, 19790, 19800, 19810, 19820, 19830, 19840, 19850, 19860, 19870, 19880, 19890, 19900, 19910, 19920, 19930, 19940, 19950, 19960, 19970, 19980, 19990, 20000], 'test_loss': [… 'nets': [[Net(
  (ff): Sequential(
    (0): Linear(in_features=1, out_features=10, bias=True)
    (1): Sigmoid()
    (2): Linear(in_features=10, out_features=1, bias=True)
  )
), Net(
  (ff): Sequential(
    (0): Linear(in_features=1, out_features=10, bias=True)
    (1): Sigmoid()
    (2): Linear(in_features=10, out_features=1, bias=True)
  )
), Net(
  (ff): Sequential(
    (0): Linear(in_features=1, out_features=10, bias=True)
    (1): Sigmoid()
    (2): Linear(in_features=10, out_features=1, bias=True)
  )
), Net(
  (ff): Sequential(
    (0): Linear(in_features=1, out_features=10, bias=True)
    (1): Sigmoid()
    (2): Linear(in_features=10, out_features=1, bias=True)
  )
)], [Net(
  (ff): Sequential(
    (0): Linear(in_features=1, out_features=10, bias=True)
    (1): Sigmoid()
    (2): Linear(in_features=10, out_features=1, bias=True)
  )
), Net(
  (ff): Sequential(
    (0): Linear(in_features=1, out_features=10, bias=True)
    (1): Sigmoid()
    (2): Linear(in_features=10, out_features=1, bias=True)
  )
), Net(
  (ff): Sequential(
    (0): Linear(in_features=1, out_features=10, bias=True)
    (1): Sigmoid()
    (2): Linear(in_features=10, out_features=1, bias=True)
  )
), Net(
  (ff): Sequential(
    (0): Linear(in_features=1, out_features=10, bias=True)
    (1): Sigmoid()
    (2): Linear(in_features=10, out_features=1, bias=True)
  )
)], [Net(
  (ff): Sequential(
    (0): Linear(in_features=1, out_features=10, bias=True)
    (1): Sigmoid()
    (2): Linear(in_features=10, out_features=1, bias=True)
  )
), Net(
  (ff): Sequential(
    (0): Linear(in_features=1, out_features=10, bias=True)
    (1): Sigmoid()
    (2): Linear(in_features=10, out_features=1, bias=True)
  )
), Net(
  (ff): Sequential(
    (0): Linear(in_features=1, out_features=10, bias=True)
    (1): Sigmoid()
    (2): Linear(in_features=10, out_features=1, bias=True)
  )
), Net(
  (ff): Sequential(
    (0): Linear(in_features=1, out_features=10, bias=True)
    (1): Sigmoid()
    (2): Linear(in_features=10, out_features=1, bias=True)
  )
)], [Net(
  (ff): Sequential(
    (0): Linear(in_features=1, out_features=10, bias=True)
    (1): Sigmoid()
    (2): Linear(in_features=10, out_features=1, bias=True)
  )
), Net(
  (ff): Sequential(
    (0): Linear(in_features=1, out_features=10, bias=True)
    (1): Sigmoid()
    (2): Linear(in_features=10, out_features=1, bias=True)
  )
), Net(
  (ff): Sequential(
    (0): Linear(in_features=1, out_features=10, bias=True)
    (1): Sigmoid()
    (2): Linear(in_features=10, out_features=1, bias=True)
  )
), Net(
  (ff): Sequential(
    (0): Linear(in_features=1, out_features=10, bias=True)
    (1): Sigmoid()
    (2): Linear(in_features=10, out_features=1, bias=True)
  )
)], [Net(
  (ff): Sequential(
    (0): Linear(in_features=1, out_features=10, bias=True)
    (1): Sigmoid()
    (2): Linear(in_features=10, out_features=1, bias=True)
  )
), Net(
  (ff): Sequential(
    (0): Linear(in_features=1, out_features=10, bias=True)
    (1): Sigmoid()
    (2): Linear(in_features=10, out_features=1, bias=True)
  )
), Net(
  (ff): Sequential(
    (0): Linear(in_features=1, out_features=10, bias=True)
    (1): Sigmoid()
    (2): Linear(in_features=10, out_features=1, bias=True)
  )
), Net(
  (ff): Sequential(
    (0): Linear(in_features=1, out_features=10, bias=True)
    (1): Sigmoid()
    (2): Linear(in_features=10, out_features=1, bias=True)
  )
)], [Net(
  (ff): Sequential(
    (0): Linear(in_features=1, out_features=10, bias=True)
    (1): Sigmoid()
    (2): Linear(in_features=10, out_features=1, bias=True)
  )
), Net(
  (ff): Sequential(
    (0): Linear(in_features=1, out_features=10, bias=True)
    (1): Sigmoid()
    (2): Linear(in_features=10, out_features=1, bias=True)
  )
), Net(
  (ff): Sequential(
    (0): Linear(in_features=1, out_features=10, bias=True)
    (1): Sigmoid()
    (2): Linear(in_features=10, out_features=1, bias=True)
  )
), Net(
  (ff): Sequential(
    (0): Linear(in_features=1, out_features=10, bias=True)
    (1): Sigmoid()
    (2): Linear(in_features=10, out_features=1, bias=True)
  )
)], [Net(
  (ff): Sequential(
    (0): Linear(in_features=1, out_features=10, bias=True)
    (1): Sigmoid()
    (2): Linear(in_features=10, out_features=1, bias=True)
  )
), Net(
  (ff): Sequential(
    (0): Linear(in_features=1, out_features=10, bias=True)
    (1): Sigmoid()
    (2): Linear(in_features=10, out_features=1, bias=True)
  )
), Net(
  (ff): Sequential(
    (0): Linear(in_features=1, out_features=10, bias=True)
    (1): Sigmoid()
    (2): Linear(in_features=10, out_features=1, bias=True)
  )
), Net(
  (ff): Sequential(
    (0): Linear(in_features=1, out_features=10, bias=True)
    (1): Sigmoid()
    (2): Linear(in_features=10, out_features=1, bias=True)
  )
)], [Net(
  (ff): Sequential(
    (0): Linear(in_features=1, out_features=10, bias=True)
    (1): Sigmoid()
    (2): Linear(in_features=10, out_features=1, bias=True)
  )
), Net(
  (ff): Sequential(
    (0): Linear(in_features=1, out_features=10, bias=True)
    (1): Sigmoid()
    (2): Linear(in_features=10, out_features=1, bias=True)
  )
), Net(
  (ff): Sequential(
    (0): Linear(in_features=1, out_features=10, bias=True)
    (1): Sigmoid()
    (2): Linear(in_features=10, out_features=1, bias=True)
  )
), Net(
  (ff): Sequential(
    (0): Linear(in_features=1, out_features=10, bias=True)
    (1): Sigmoid()
    (2): Linear(in_features=10, out_features=1, bias=True)
  )
)], [Net(
  (ff): Sequential(
    (0): Linear(in_features=1, out_features=10, bias=True)
    (1): Sigmoid()
    (2): Linear(in_features=10, out_features=1, bias=True)
  )
), Net(
  (ff): Sequential(
    (0): Linear(in_features=1, out_features=10, bias=True)
    (1): Sigmoid()
    (2): Linear(in_features=10, out_features=1, bias=True)
  )
), Net(
  (ff): Sequential(
    (0): Linear(in_features=1, out_features=10, bias=True)
    (1): Sigmoid()
    (2): Linear(in_features=10, out_features=1, bias=True)
  )
), Net(
  (ff): Sequential(
    (0): Linear(in_features=1, out_features=10, bias=True)
    (1): Sigmoid()
    (2): Linear(in_features=10, out_features=1, bias=True)
  )
)], [Net(
  (ff): Sequential(
    (0): Linear(in_features=1, out_features=10, bias=True)
    (1): Sigmoid()
    (2): Linear(in_features=10, out_features=1, bias=True)
  )
), Net(
  (ff): Sequential(
    (0): Linear(in_features=1, out_features=10, bias=True)
    (1): Sigmoid()
    (2): Linear(in_features=10, out_features=1, bias=True)
  )
), Net(
  (ff): Sequential(
    (0): Linear(in_features=1, out_features=10, bias=True)
    (1): Sigmoid()
    (2): Linear(in_features=10, out_features=1, bias=True)
  )
), Net(
  (ff): Sequential(
    (0): Linear(in_features=1, out_features=10, bias=True)
    (1): Sigmoid()
    (2): Linear(in_features=10, out_features=1, bias=True)
  )
)]]}"
20,"{'train_loss': [… 'opts': [[Adam (
Parameter Group 0
    amsgrad: False
    betas: (0.9, 0.999)
    eps: 1e-08
    lr: 0.001
    weight_decay: 0
), Adam (
Parameter Group 0
    amsgrad: False
    betas: (0.9, 0.999)
    eps: 1e-08
    lr: 0.001
    weight_decay: 0
), Adam (
Parameter Group 0
    amsgrad: False
    betas: (0.9, 0.999)
    eps: 1e-08
…
0, 19240, 19250, 19260, 19270, 19280, 19290, 19300, 19310, 19320, 19330, 19340, 19350, 19360, 19370, 19380, 19390, 19400, 19410, 19420, 19430, 19440, 19450, 19460, 19470, 19480, 19490, 19500, 19510, 19520, 19530, 19540, 19550, 19560, 19570, 19580, 19590, 19600, 19610, 19620, 19630, 19640, 19650, 19660, 19670, 19680, 19690, 19700, 19710, 19720, 19730, 19740, 19750, 19760, 19770, 19780, 19790, 19800, 19810, 19820, 19830, 19840, 19850, 19860, 19870, 19880, 19890, 19900, 19910, 19920, 19930, 19940, 19950, 19960, 19970, 19980, 19990, 20000], 'test_loss': [… 'nets': [[Net(
  (ff): Sequential(
    (0): Linear(in_features=1, out_features=20, bias=True)
    (1): Sigmoid()
    (2): Linear(in_features=20, out_features=1, bias=True)
  )
), Net(
  (ff): Sequential(
    (0): Linear(in_features=1, out_features=20, bias=True)
    (1): Sigmoid()
    (2): Linear(in_features=20, out_features=1, bias=True)
  )
), Net(
  (ff): Sequential(
    (0): Linear(in_features=1, out_features=20, bias=True)
    (1): Sigmoid()
    (2): Linear(in_features=20, out_features=1, bias=True)
  )
), Net(
  (ff): Sequential(
    (0): Linear(in_features=1, out_features=20, bias=True)
    (1): Sigmoid()
    (2): Linear(in_features=20, out_features=1, bias=True)
  )
)], [Net(
  (ff): Sequential(
    (0): Linear(in_features=1, out_features=20, bias=True)
    (1): Sigmoid()
    (2): Linear(in_features=20, out_features=1, bias=True)
  )
), Net(
  (ff): Sequential(
    (0): Linear(in_features=1, out_features=20, bias=True)
    (1): Sigmoid()
    (2): Linear(in_features=20, out_features=1, bias=True)
  )
), Net(
  (ff): Sequential(
    (0): Linear(in_features=1, out_features=20, bias=True)
    (1): Sigmoid()
    (2): Linear(in_features=20, out_features=1, bias=True)
  )
), Net(
  (ff): Sequential(
    (0): Linear(in_features=1, out_features=20, bias=True)
    (1): Sigmoid()
    (2): Linear(in_features=20, out_features=1, bias=True)
  )
)], [Net(
  (ff): Sequential(
    (0): Linear(in_features=1, out_features=20, bias=True)
    (1): Sigmoid()
    (2): Linear(in_features=20, out_features=1, bias=True)
  )
), Net(
  (ff): Sequential(
    (0): Linear(in_features=1, out_features=20, bias=True)
    (1): Sigmoid()
    (2): Linear(in_features=20, out_features=1, bias=True)
  )
), Net(
  (ff): Sequential(
    (0): Linear(in_features=1, out_features=20, bias=True)
    (1): Sigmoid()
    (2): Linear(in_features=20, out_features=1, bias=True)
  )
), Net(
  (ff): Sequential(
    (0): Linear(in_features=1, out_features=20, bias=True)
    (1): Sigmoid()
    (2): Linear(in_features=20, out_features=1, bias=True)
  )
)], [Net(
  (ff): Sequential(
    (0): Linear(in_features=1, out_features=20, bias=True)
    (1): Sigmoid()
    (2): Linear(in_features=20, out_features=1, bias=True)
  )
), Net(
  (ff): Sequential(
    (0): Linear(in_features=1, out_features=20, bias=True)
    (1): Sigmoid()
    (2): Linear(in_features=20, out_features=1, bias=True)
  )
), Net(
  (ff): Sequential(
    (0): Linear(in_features=1, out_features=20, bias=True)
    (1): Sigmoid()
    (2): Linear(in_features=20, out_features=1, bias=True)
  )
), Net(
  (ff): Sequential(
    (0): Linear(in_features=1, out_features=20, bias=True)
    (1): Sigmoid()
    (2): Linear(in_features=20, out_features=1, bias=True)
  )
)], [Net(
  (ff): Sequential(
    (0): Linear(in_features=1, out_features=20, bias=True)
    (1): Sigmoid()
    (2): Linear(in_features=20, out_features=1, bias=True)
  )
), Net(
  (ff): Sequential(
    (0): Linear(in_features=1, out_features=20, bias=True)
    (1): Sigmoid()
    (2): Linear(in_features=20, out_features=1, bias=True)
  )
), Net(
  (ff): Sequential(
    (0): Linear(in_features=1, out_features=20, bias=True)
    (1): Sigmoid()
    (2): Linear(in_features=20, out_features=1, bias=True)
  )
), Net(
  (ff): Sequential(
    (0): Linear(in_features=1, out_features=20, bias=True)
    (1): Sigmoid()
    (2): Linear(in_features=20, out_features=1, bias=True)
  )
)], [Net(
  (ff): Sequential(
    (0): Linear(in_features=1, out_features=20, bias=True)
    (1): Sigmoid()
    (2): Linear(in_features=20, out_features=1, bias=True)
  )
), Net(
  (ff): Sequential(
    (0): Linear(in_features=1, out_features=20, bias=True)
    (1): Sigmoid()
    (2): Linear(in_features=20, out_features=1, bias=True)
  )
), Net(
  (ff): Sequential(
    (0): Linear(in_features=1, out_features=20, bias=True)
    (1): Sigmoid()
    (2): Linear(in_features=20, out_features=1, bias=True)
  )
), Net(
  (ff): Sequential(
    (0): Linear(in_features=1, out_features=20, bias=True)
    (1): Sigmoid()
    (2): Linear(in_features=20, out_features=1, bias=True)
  )
)], [Net(
  (ff): Sequential(
    (0): Linear(in_features=1, out_features=20, bias=True)
    (1): Sigmoid()
    (2): Linear(in_features=20, out_features=1, bias=True)
  )
), Net(
  (ff): Sequential(
    (0): Linear(in_features=1, out_features=20, bias=True)
    (1): Sigmoid()
    (2): Linear(in_features=20, out_features=1, bias=True)
  )
), Net(
  (ff): Sequential(
    (0): Linear(in_features=1, out_features=20, bias=True)
    (1): Sigmoid()
    (2): Linear(in_features=20, out_features=1, bias=True)
  )
), Net(
  (ff): Sequential(
    (0): Linear(in_features=1, out_features=20, bias=True)
    (1): Sigmoid()
    (2): Linear(in_features=20, out_features=1, bias=True)
  )
)], [Net(
  (ff): Sequential(
    (0): Linear(in_features=1, out_features=20, bias=True)
    (1): Sigmoid()
    (2): Linear(in_features=20, out_features=1, bias=True)
  )
), Net(
  (ff): Sequential(
    (0): Linear(in_features=1, out_features=20, bias=True)
    (1): Sigmoid()
    (2): Linear(in_features=20, out_features=1, bias=True)
  )
), Net(
  (ff): Sequential(
    (0): Linear(in_features=1, out_features=20, bias=True)
    (1): Sigmoid()
    (2): Linear(in_features=20, out_features=1, bias=True)
  )
), Net(
  (ff): Sequential(
    (0): Linear(in_features=1, out_features=20, bias=True)
    (1): Sigmoid()
    (2): Linear(in_features=20, out_features=1, bias=True)
  )
)], [Net(
  (ff): Sequential(
    (0): Linear(in_features=1, out_features=20, bias=True)
    (1): Sigmoid()
    (2): Linear(in_features=20, out_features=1, bias=True)
  )
), Net(
  (ff): Sequential(
    (0): Linear(in_features=1, out_features=20, bias=True)
    (1): Sigmoid()
    (2): Linear(in_features=20, out_features=1, bias=True)
  )
), Net(
  (ff): Sequential(
    (0): Linear(in_features=1, out_features=20, bias=True)
    (1): Sigmoid()
    (2): Linear(in_features=20, out_features=1, bias=True)
  )
), Net(
  (ff): Sequential(
    (0): Linear(in_features=1, out_features=20, bias=True)
    (1): Sigmoid()
    (2): Linear(in_features=20, out_features=1, bias=True)
  )
)], [Net(
  (ff): Sequential(
    (0): Linear(in_features=1, out_features=20, bias=True)
    (1): Sigmoid()
    (2): Linear(in_features=20, out_features=1, bias=True)
  )
), Net(
  (ff): Sequential(
    (0): Linear(in_features=1, out_features=20, bias=True)
    (1): Sigmoid()
    (2): Linear(in_features=20, out_features=1, bias=True)
  )
), Net(
  (ff): Sequential(
    (0): Linear(in_features=1, out_features=20, bias=True)
    (1): Sigmoid()
    (2): Linear(in_features=20, out_features=1, bias=True)
  )
), Net(
  (ff): Sequential(
    (0): Linear(in_features=1, out_features=20, bias=True)
    (1): Sigmoid()
    (2): Linear(in_features=20, out_features=1, bias=True)
  )
)]]}"
50,"{'train_loss': [… 'opts': [[Adam (
Parameter Group 0
    amsgrad: False
    betas: (0.9, 0.999)
    eps: 1e-08
    lr: 0.001
    weight_decay: 0
), Adam (
Parameter Group 0
    amsgrad: False
    betas: (0.9, 0.999)
    eps: 1e-08
    lr: 0.001
    weight_decay: 0
), Adam (
Parameter Group 0
    amsgrad: False
    betas: (0.9, 0.999)
    eps: 1e-08
…
0, 69240, 69250, 69260, 69270, 69280, 69290, 69300, 69310, 69320, 69330, 69340, 69350, 69360, 69370, 69380, 69390, 69400, 69410, 69420, 69430, 69440, 69450, 69460, 69470, 69480, 69490, 69500, 69510, 69520, 69530, 69540, 69550, 69560, 69570, 69580, 69590, 69600, 69610, 69620, 69630, 69640, 69650, 69660, 69670, 69680, 69690, 69700, 69710, 69720, 69730, 69740, 69750, 69760, 69770, 69780, 69790, 69800, 69810, 69820, 69830, 69840, 69850, 69860, 69870, 69880, 69890, 69900, 69910, 69920, 69930, 69940, 69950, 69960, 69970, 69980, 69990, 70000], 'test_loss': [… 'nets': [[Net(
  (ff): Sequential(
    (0): Linear(in_features=1, out_features=50, bias=True)
    (1): Sigmoid()
    (2): Linear(in_features=50, out_features=1, bias=True)
  )
), Net(
  (ff): Sequential(
    (0): Linear(in_features=1, out_features=50, bias=True)
    (1): Sigmoid()
    (2): Linear(in_features=50, out_features=1, bias=True)
  )
), Net(
  (ff): Sequential(
    (0): Linear(in_features=1, out_features=50, bias=True)
    (1): Sigmoid()
    (2): Linear(in_features=50, out_features=1, bias=True)
  )
), Net(
  (ff): Sequential(
    (0): Linear(in_features=1, out_features=50, bias=True)
    (1): Sigmoid()
    (2): Linear(in_features=50, out_features=1, bias=True)
  )
)], [Net(
  (ff): Sequential(
    (0): Linear(in_features=1, out_features=50, bias=True)
    (1): Sigmoid()
    (2): Linear(in_features=50, out_features=1, bias=True)
  )
), Net(
  (ff): Sequential(
    (0): Linear(in_features=1, out_features=50, bias=True)
    (1): Sigmoid()
    (2): Linear(in_features=50, out_features=1, bias=True)
  )
), Net(
  (ff): Sequential(
    (0): Linear(in_features=1, out_features=50, bias=True)
    (1): Sigmoid()
    (2): Linear(in_features=50, out_features=1, bias=True)
  )
), Net(
  (ff): Sequential(
    (0): Linear(in_features=1, out_features=50, bias=True)
    (1): Sigmoid()
    (2): Linear(in_features=50, out_features=1, bias=True)
  )
)], [Net(
  (ff): Sequential(
    (0): Linear(in_features=1, out_features=50, bias=True)
    (1): Sigmoid()
    (2): Linear(in_features=50, out_features=1, bias=True)
  )
), Net(
  (ff): Sequential(
    (0): Linear(in_features=1, out_features=50, bias=True)
    (1): Sigmoid()
    (2): Linear(in_features=50, out_features=1, bias=True)
  )
), Net(
  (ff): Sequential(
    (0): Linear(in_features=1, out_features=50, bias=True)
    (1): Sigmoid()
    (2): Linear(in_features=50, out_features=1, bias=True)
  )
), Net(
  (ff): Sequential(
    (0): Linear(in_features=1, out_features=50, bias=True)
    (1): Sigmoid()
    (2): Linear(in_features=50, out_features=1, bias=True)
  )
)], [Net(
  (ff): Sequential(
    (0): Linear(in_features=1, out_features=50, bias=True)
    (1): Sigmoid()
    (2): Linear(in_features=50, out_features=1, bias=True)
  )
), Net(
  (ff): Sequential(
    (0): Linear(in_features=1, out_features=50, bias=True)
    (1): Sigmoid()
    (2): Linear(in_features=50, out_features=1, bias=True)
  )
), Net(
  (ff): Sequential(
    (0): Linear(in_features=1, out_features=50, bias=True)
    (1): Sigmoid()
    (2): Linear(in_features=50, out_features=1, bias=True)
  )
), Net(
  (ff): Sequential(
    (0): Linear(in_features=1, out_features=50, bias=True)
    (1): Sigmoid()
    (2): Linear(in_features=50, out_features=1, bias=True)
  )
)], [Net(
  (ff): Sequential(
    (0): Linear(in_features=1, out_features=50, bias=True)
    (1): Sigmoid()
    (2): Linear(in_features=50, out_features=1, bias=True)
  )
), Net(
  (ff): Sequential(
    (0): Linear(in_features=1, out_features=50, bias=True)
    (1): Sigmoid()
    (2): Linear(in_features=50, out_features=1, bias=True)
  )
), Net(
  (ff): Sequential(
    (0): Linear(in_features=1, out_features=50, bias=True)
    (1): Sigmoid()
    (2): Linear(in_features=50, out_features=1, bias=True)
  )
), Net(
  (ff): Sequential(
    (0): Linear(in_features=1, out_features=50, bias=True)
    (1): Sigmoid()
    (2): Linear(in_features=50, out_features=1, bias=True)
  )
)], [Net(
  (ff): Sequential(
    (0): Linear(in_features=1, out_features=50, bias=True)
    (1): Sigmoid()
    (2): Linear(in_features=50, out_features=1, bias=True)
  )
), Net(
  (ff): Sequential(
    (0): Linear(in_features=1, out_features=50, bias=True)
    (1): Sigmoid()
    (2): Linear(in_features=50, out_features=1, bias=True)
  )
), Net(
  (ff): Sequential(
    (0): Linear(in_features=1, out_features=50, bias=True)
    (1): Sigmoid()
    (2): Linear(in_features=50, out_features=1, bias=True)
  )
), Net(
  (ff): Sequential(
    (0): Linear(in_features=1, out_features=50, bias=True)
    (1): Sigmoid()
    (2): Linear(in_features=50, out_features=1, bias=True)
  )
)], [Net(
  (ff): Sequential(
    (0): Linear(in_features=1, out_features=50, bias=True)
    (1): Sigmoid()
    (2): Linear(in_features=50, out_features=1, bias=True)
  )
), Net(
  (ff): Sequential(
    (0): Linear(in_features=1, out_features=50, bias=True)
    (1): Sigmoid()
    (2): Linear(in_features=50, out_features=1, bias=True)
  )
), Net(
  (ff): Sequential(
    (0): Linear(in_features=1, out_features=50, bias=True)
    (1): Sigmoid()
    (2): Linear(in_features=50, out_features=1, bias=True)
  )
), Net(
  (ff): Sequential(
    (0): Linear(in_features=1, out_features=50, bias=True)
    (1): Sigmoid()
    (2): Linear(in_features=50, out_features=1, bias=True)
  )
)], [Net(
  (ff): Sequential(
    (0): Linear(in_features=1, out_features=50, bias=True)
    (1): Sigmoid()
    (2): Linear(in_features=50, out_features=1, bias=True)
  )
), Net(
  (ff): Sequential(
    (0): Linear(in_features=1, out_features=50, bias=True)
    (1): Sigmoid()
    (2): Linear(in_features=50, out_features=1, bias=True)
  )
), Net(
  (ff): Sequential(
    (0): Linear(in_features=1, out_features=50, bias=True)
    (1): Sigmoid()
    (2): Linear(in_features=50, out_features=1, bias=True)
  )
), Net(
  (ff): Sequential(
    (0): Linear(in_features=1, out_features=50, bias=True)
    (1): Sigmoid()
    (2): Linear(in_features=50, out_features=1, bias=True)
  )
)], [Net(
  (ff): Sequential(
    (0): Linear(in_features=1, out_features=50, bias=True)
    (1): Sigmoid()
    (2): Linear(in_features=50, out_features=1, bias=True)
  )
), Net(
  (ff): Sequential(
    (0): Linear(in_features=1, out_features=50, bias=True)
    (1): Sigmoid()
    (2): Linear(in_features=50, out_features=1, bias=True)
  )
), Net(
  (ff): Sequential(
    (0): Linear(in_features=1, out_features=50, bias=True)
    (1): Sigmoid()
    (2): Linear(in_features=50, out_features=1, bias=True)
  )
), Net(
  (ff): Sequential(
    (0): Linear(in_features=1, out_features=50, bias=True)
    (1): Sigmoid()
    (2): Linear(in_features=50, out_features=1, bias=True)
  )
)], [Net(
  (ff): Sequential(
    (0): Linear(in_features=1, out_features=50, bias=True)
    (1): Sigmoid()
    (2): Linear(in_features=50, out_features=1, bias=True)
  )
), Net(
  (ff): Sequential(
    (0): Linear(in_features=1, out_features=50, bias=True)
    (1): Sigmoid()
    (2): Linear(in_features=50, out_features=1, bias=True)
  )
), Net(
  (ff): Sequential(
    (0): Linear(in_features=1, out_features=50, bias=True)
    (1): Sigmoid()
    (2): Linear(in_features=50, out_features=1, bias=True)
  )
), Net(
  (ff): Sequential(
    (0): Linear(in_features=1, out_features=50, bias=True)
    (1): Sigmoid()
    (2): Linear(in_features=50, out_features=1, bias=True)
  )
)]]}"
100,"{'train_loss': [… 'opts': [[Adam (
Parameter Group 0
    amsgrad: False
    betas: (0.9, 0.999)
    eps: 1e-08
    lr: 0.001
    weight_decay: 0
), Adam (
Parameter Group 0
    amsgrad: False
    betas: (0.9, 0.999)
    eps: 1e-08
    lr: 0.001
    weight_decay: 0
), Adam (
Parameter Group 0
    amsgrad: False
    betas: (0.9, 0.999)
    eps: 1e-08
…
0, 69240, 69250, 69260, 69270, 69280, 69290, 69300, 69310, 69320, 69330, 69340, 69350, 69360, 69370, 69380, 69390, 69400, 69410, 69420, 69430, 69440, 69450, 69460, 69470, 69480, 69490, 69500, 69510, 69520, 69530, 69540, 69550, 69560, 69570, 69580, 69590, 69600, 69610, 69620, 69630, 69640, 69650, 69660, 69670, 69680, 69690, 69700, 69710, 69720, 69730, 69740, 69750, 69760, 69770, 69780, 69790, 69800, 69810, 69820, 69830, 69840, 69850, 69860, 69870, 69880, 69890, 69900, 69910, 69920, 69930, 69940, 69950, 69960, 69970, 69980, 69990, 70000], 'test_loss': [… 'nets': [[Net(
  (ff): Sequential(
    (0): Linear(in_features=1, out_features=100, bias=True)
    (1): Sigmoid()
    (2): Linear(in_features=100, out_features=1, bias=True)
  )
), Net(
  (ff): Sequential(
    (0): Linear(in_features=1, out_features=100, bias=True)
    (1): Sigmoid()
    (2): Linear(in_features=100, out_features=1, bias=True)
  )
), Net(
  (ff): Sequential(
    (0): Linear(in_features=1, out_features=100, bias=True)
    (1): Sigmoid()
    (2): Linear(in_features=100, out_features=1, bias=True)
  )
), Net(
  (ff): Sequential(
    (0): Linear(in_features=1, out_features=100, bias=True)
    (1): Sigmoid()
    (2): Linear(in_features=100, out_features=1, bias=True)
  )
)], [Net(
  (ff): Sequential(
    (0): Linear(in_features=1, out_features=100, bias=True)
    (1): Sigmoid()
    (2): Linear(in_features=100, out_features=1, bias=True)
  )
), Net(
  (ff): Sequential(
    (0): Linear(in_features=1, out_features=100, bias=True)
    (1): Sigmoid()
    (2): Linear(in_features=100, out_features=1, bias=True)
  )
), Net(
  (ff): Sequential(
    (0): Linear(in_features=1, out_features=100, bias=True)
    (1): Sigmoid()
    (2): Linear(in_features=100, out_features=1, bias=True)
  )
), Net(
  (ff): Sequential(
    (0): Linear(in_features=1, out_features=100, bias=True)
    (1): Sigmoid()
    (2): Linear(in_features=100, out_features=1, bias=True)
  )
)], [Net(
  (ff): Sequential(
    (0): Linear(in_features=1, out_features=100, bias=True)
    (1): Sigmoid()
    (2): Linear(in_features=100, out_features=1, bias=True)
  )
), Net(
  (ff): Sequential(
    (0): Linear(in_features=1, out_features=100, bias=True)
    (1): Sigmoid()
    (2): Linear(in_features=100, out_features=1, bias=True)
  )
), Net(
  (ff): Sequential(
    (0): Linear(in_features=1, out_features=100, bias=True)
    (1): Sigmoid()
    (2): Linear(in_features=100, out_features=1, bias=True)
  )
), Net(
  (ff): Sequential(
    (0): Linear(in_features=1, out_features=100, bias=True)
    (1): Sigmoid()
    (2): Linear(in_features=100, out_features=1, bias=True)
  )
)], [Net(
  (ff): Sequential(
    (0): Linear(in_features=1, out_features=100, bias=True)
    (1): Sigmoid()
    (2): Linear(in_features=100, out_features=1, bias=True)
  )
), Net(
  (ff): Sequential(
    (0): Linear(in_features=1, out_features=100, bias=True)
    (1): Sigmoid()
    (2): Linear(in_features=100, out_features=1, bias=True)
  )
), Net(
  (ff): Sequential(
    (0): Linear(in_features=1, out_features=100, bias=True)
    (1): Sigmoid()
    (2): Linear(in_features=100, out_features=1, bias=True)
  )
), Net(
  (ff): Sequential(
    (0): Linear(in_features=1, out_features=100, bias=True)
    (1): Sigmoid()
    (2): Linear(in_features=100, out_features=1, bias=True)
  )
)], [Net(
  (ff): Sequential(
    (0): Linear(in_features=1, out_features=100, bias=True)
    (1): Sigmoid()
    (2): Linear(in_features=100, out_features=1, bias=True)
  )
), Net(
  (ff): Sequential(
    (0): Linear(in_features=1, out_features=100, bias=True)
    (1): Sigmoid()
    (2): Linear(in_features=100, out_features=1, bias=True)
  )
), Net(
  (ff): Sequential(
    (0): Linear(in_features=1, out_features=100, bias=True)
    (1): Sigmoid()
    (2): Linear(in_features=100, out_features=1, bias=True)
  )
), Net(
  (ff): Sequential(
    (0): Linear(in_features=1, out_features=100, bias=True)
    (1): Sigmoid()
    (2): Linear(in_features=100, out_features=1, bias=True)
  )
)], [Net(
  (ff): Sequential(
    (0): Linear(in_features=1, out_features=100, bias=True)
    (1): Sigmoid()
    (2): Linear(in_features=100, out_features=1, bias=True)
  )
), Net(
  (ff): Sequential(
    (0): Linear(in_features=1, out_features=100, bias=True)
    (1): Sigmoid()
    (2): Linear(in_features=100, out_features=1, bias=True)
  )
), Net(
  (ff): Sequential(
    (0): Linear(in_features=1, out_features=100, bias=True)
    (1): Sigmoid()
    (2): Linear(in_features=100, out_features=1, bias=True)
  )
), Net(
  (ff): Sequential(
    (0): Linear(in_features=1, out_features=100, bias=True)
    (1): Sigmoid()
    (2): Linear(in_features=100, out_features=1, bias=True)
  )
)], [Net(
  (ff): Sequential(
    (0): Linear(in_features=1, out_features=100, bias=True)
    (1): Sigmoid()
    (2): Linear(in_features=100, out_features=1, bias=True)
  )
), Net(
  (ff): Sequential(
    (0): Linear(in_features=1, out_features=100, bias=True)
    (1): Sigmoid()
    (2): Linear(in_features=100, out_features=1, bias=True)
  )
), Net(
  (ff): Sequential(
    (0): Linear(in_features=1, out_features=100, bias=True)
    (1): Sigmoid()
    (2): Linear(in_features=100, out_features=1, bias=True)
  )
), Net(
  (ff): Sequential(
    (0): Linear(in_features=1, out_features=100, bias=True)
    (1): Sigmoid()
    (2): Linear(in_features=100, out_features=1, bias=True)
  )
)], [Net(
  (ff): Sequential(
    (0): Linear(in_features=1, out_features=100, bias=True)
    (1): Sigmoid()
    (2): Linear(in_features=100, out_features=1, bias=True)
  )
), Net(
  (ff): Sequential(
    (0): Linear(in_features=1, out_features=100, bias=True)
    (1): Sigmoid()
    (2): Linear(in_features=100, out_features=1, bias=True)
  )
), Net(
  (ff): Sequential(
    (0): Linear(in_features=1, out_features=100, bias=True)
    (1): Sigmoid()
    (2): Linear(in_features=100, out_features=1, bias=True)
  )
), Net(
  (ff): Sequential(
    (0): Linear(in_features=1, out_features=100, bias=True)
    (1): Sigmoid()
    (2): Linear(in_features=100, out_features=1, bias=True)
  )
)], [Net(
  (ff): Sequential(
    (0): Linear(in_features=1, out_features=100, bias=True)
    (1): Sigmoid()
    (2): Linear(in_features=100, out_features=1, bias=True)
  )
), Net(
  (ff): Sequential(
    (0): Linear(in_features=1, out_features=100, bias=True)
    (1): Sigmoid()
    (2): Linear(in_features=100, out_features=1, bias=True)
  )
), Net(
  (ff): Sequential(
    (0): Linear(in_features=1, out_features=100, bias=True)
    (1): Sigmoid()
    (2): Linear(in_features=100, out_features=1, bias=True)
  )
), Net(
  (ff): Sequential(
    (0): Linear(in_features=1, out_features=100, bias=True)
    (1): Sigmoid()
    (2): Linear(in_features=100, out_features=1, bias=True)
  )
)], [Net(
  (ff): Sequential(
    (0): Linear(in_features=1, out_features=100, bias=True)
    (1): Sigmoid()
    (2): Linear(in_features=100, out_features=1, bias=True)
  )
), Net(
  (ff): Sequential(
    (0): Linear(in_features=1, out_features=100, bias=True)
    (1): Sigmoid()
    (2): Linear(in_features=100, out_features=1, bias=True)
  )
), Net(
  (ff): Sequential(
    (0): Linear(in_features=1, out_features=100, bias=True)
    (1): Sigmoid()
    (2): Linear(in_features=100, out_features=1, bias=True)
  )
), Net(
  (ff): Sequential(
    (0): Linear(in_features=1, out_features=100, bias=True)
    (1): Sigmoid()
    (2): Linear(in_features=100, out_features=1, bias=True)
  )
)]]}"
